integration_tests/prompt_prefixes/tinyllama_peft_adapter/adapter_model.safetensors (safetensors, 2168 bytes, 1 tensors)

prompt_embeddings f4 [8, 64]
000000 23 6a cc 3d 17 d0 3d 3c d5 5a cb bd 1b 41 ed 3d
       0.099811815 0.011585257 -0.09929434 0.115846835
000010 c3 6a 95 bd dd 50 f1 3d 96 a8 da 3d c2 5f 54 3d
       -0.07295754 0.117830016 0.106766865 0.051849134
000020 59 24 db 3d 1b b8 63 3d fb 3f a8 bd 1d 65 83 3d
       0.10700292 0.0555955 -0.08215328 0.0641577
000030 8d 79 82 bd d5 a8 a2 bd 66 ab e8 bd 08 14 16 3d
       -0.0637084 -0.079423584 -0.11360817 0.036640197
000040 17 1d 88 3d f7 35 81 bc 4d 86 88 bd b0 b1 ed bd
       0.066461734 -0.015772803 -0.06666241 -0.11606157
000050 e6 4d 54 3d f2 ac 96 3d 76 aa 56 bc 80 db 13 3d
       0.051832102 0.073572055 -0.0131021645 0.036098003
000060 45 28 73 39 b4 41 13 3d 32 6e ea 3d f4 a8 49 bd
       0.00023189287 0.03595133 0.11446799 -0.049233392
000070 9a 36 27 3d 82 d2 05 be ee 51 60 3d 19 be 01 3d
       0.040823556 -0.13068584 0.054765634 0.031675432
000080 dd 25 35 bd 87 66 d7 3d ab 0e 8c bd 7b e4 f2 bd
       -0.044225562 0.105176024 -0.06838735 -0.118599854
000090 db b8 7e bd 5a 31 0d be 32 7e 27 bc 21 d7 a8 bd
       -0.06218801 -0.13788357 -0.010222958 -0.082441576
0000a0 57 1c dc 3d f4 d0 22 bb 81 68 89 3d ac 8c 5f bd
       0.10747593 -0.0024843784 0.06709386 -0.054577515
0000b0 19 b4 54 3d 0e c9 96 3d f9 b0 b5 bd dc 4f e3 bd
       0.051929567 0.07362567 -0.088716455 -0.11099216
0000c0 69 a0 6a 3d 7b 6d d9 3d 04 bc 7c 3c 11 77 1b 3d
       0.057281885 0.10616585 0.015425686 0.037955347
0000d0 84 d7 05 3e fb c6 be 3d de af 03 3e 74 70 ce bc
       0.13070494 0.09315296 0.12860057 -0.025200106
0000e0 f7 26 81 bd 88 12 77 3d 88 71 84 bd f5 2b 91 bd
       -0.0630626 0.060320407 -0.06466967 -0.07088462
0000f0 c7 1f a1 3d 6b d9 9b 3a 09 d9 3f bd 87 a6 c0 bd
       0.07867389 0.0011890357 -0.04683784 -0.094067626
000100 c3 32 88 bd 07 1a 27 bc 65 1d 9f bd 54 47 4c 3b
       -0.06650307 -0.0101990765 -0.077692784 0.0031170445
000110 04 cc b8 bd b1 ec c1 3c 45 b3 1c ba 97 16 3b 3d
       -0.09023288 0.023672434 -0.0005977641 0.04567584
000120 6a db 90 ba ee 4c 8c bd b1 8b 32 bd f1 8e b8 bd
       -0.0011051719 -0.06850611 -0.04359025 -0.09011639
000130 4f d2 0b 3d 9a d4 8c 3d b1 58 17 be f1 83 e0 bc
       0.034136113 0.06876488 -0.14779927 -0.027406665
000140 8d 3d 41 bb da c4 92 bd c5 f8 d6 bd 0c 65 ab bd
       -0.002948615 -0.07166453 -0.10496668 -0.083688825
000150 65 19 ac 3d 36 70 ca bd 48 0f b0 3d 8b 73 12 bd
       0.08403281 -0.09884684 0.08596665 -0.03575472
000160 06 56 8c 3c 7f 94 94 3d 86 60 04 bd 31 24 96 bc
       0.017130863 0.07254886 -0.032318614 -0.018327804
000170 c1 55 14 bd 7b 0b 78 3d ce 9a 9d 3d b1 14 1f 3d
       -0.036214594 0.060557824 0.07695542 0.038838092
000180 78 87 25 bd 73 d9 10 bd fe c8 1f bd 6b f8 bf 3c
       -0.040412396 -0.035363626 -0.03901004 0.023433885
000190 f9 22 97 bc e8 ae 55 bd d0 25 4a bb f4 ec 93 3d
       -0.018449293 -0.052168757 -0.0030845292 0.072229296
0001a0 04 4c ac 3d c1 91 cc bc 82 64 e1 3d 29 3d ef 3c
       0.08412936 -0.024971845 0.110054985 0.029203968
0001b0 f6 2f 9f bd 2a e9 a2 3c 4c 19 8b 3d 94 a3 a8 bc
       -0.0777282 0.019886572 0.06791934 -0.020585813
0001c0 4f eb fb 3b c2 84 9d 3c f5 54 b7 3d e8 a0 c1 3a
       0.007687963 0.019228343 0.08951751 0.0014772685
0001d0 3c 8b a4 3d 07 3c 70 3d d5 52 7c bd b6 bf 26 3d
       0.08034369 0.058650997 -0.061602432 0.040710174
0001e0 58 7e ad 3d 92 c4 6c 3d 76 e6 35 bd e1 ae 78 bd
       0.08471364 0.05780465 -0.044409238 -0.060713653
0001f0 15 20 3f bc e0 62 3d 3c cb fa 1c 3c fa d6 bd bb
       -0.011665364 0.011559218 0.009581278 -0.0057934495
000200 fa 39 c2 3b 9f 21 93 3b 55 bc b9 bd f5 bb 72 bd
       0.0059273215 0.004490092 -0.090691246 -0.05926128
000210 0d 69 f8 3c ad 85 bd bc 8a ee 23 3d f6 5f 5f bd
       0.03032353 -0.02313503 0.04002241 -0.054534875
000220 f8 c9 88 bd bc 7e a8 3c df fb 52 3d 97 9e 00 bd
       -0.066791475 0.020568244 0.051509734 -0.031401243
000230 d9 7f e3 bd 05 fe e7 3c fc 52 39 bc c1 9f 2b bd
       -0.111083694 0.028319368 -0.011311289 -0.0419004
000240 64 76 b4 3c 40 34 af 3c 09 82 00 3d a7 99 65 bd
       0.02202911 0.02138722 0.03137401 -0.056054737
000250 13 32 76 bb 9f 23 dc 3d 11 3a 2d bd 38 6b 78 3b
       -0.0037566468 0.10748982 -0.042291705 0.0037905704
000260 54 0e a6 bd 6c 3e fc 3d 8b 24 2e bd 65 d0 87 bd
       -0.081082016 0.123165935 -0.04251532 -0.06631545
000270 48 9a 8c 3d 4f 2e 5c 3c 39 ad d1 bd 16 b3 13 3c
       0.06865364 0.013438775 -0.10238118 0.009014865
000280 64 5d 45 3d e0 2e 00 be ca 06 18 bd ae 9d c0 bd
       0.048184767 -0.12517881 -0.03711585 -0.09405075
000290 55 04 a3 3d 52 20 88 bd f4 32 eb 3d 77 54 0d 3d
       0.07959811 -0.066467896 0.11484328 0.03450438
0002a0 22 c9 46 3c 8c 2d 91 bd 07 0c 3e bd bf d7 02 bc
       0.012132915 -0.070887655 -0.04639819 -0.007986008
0002b0 5d b9 82 3d d5 56 9d bd 91 e4 17 3d 05 90 cd 3c
       0.063830115 -0.076825775 0.037083212 0.025093088
0002c0 ce 31 d5 bb d3 ac 8b bd f8 1b e9 bc 26 db a5 3b
       -0.0065061813 -0.06820073 -0.02845572 0.005061525
0002d0 64 1b b2 bd 93 ea c2 3c 90 aa 3e 3c 11 2a 4f 3c
       -0.086966306 0.023793494 0.011637345 0.012644307
0002e0 8c 56 75 3d c1 2e 1d bd 01 68 21 3d 82 9e 84 3d
       0.05989699 -0.038374666 0.039405826 0.064755455
0002f0 ff e5 82 3d af c7 5e bd 9b 63 b9 bc e8 ca f8 bc
       0.063915245 -0.054389652 -0.022630503 -0.03037019
000300 5f f8 0e bd 1b 8d 07 3e d2 e1 64 3d 3a 85 1b bc
       -0.034904834 0.13237421 0.05587942 -0.009492213
000310 14 3a 10 3e 1a cf 66 3d 43 f8 50 3d 24 29 87 bd
       0.14084655 0.05634985 0.05101801 -0.06599644
000320 37 0c 38 bd ae e0 15 3e 7c 6a 1b bd ff f9 b8 bd
       -0.044933524 0.1463649 -0.03794335 -0.09032058
000330 01 a1 09 3d 8c 5b 6e 3d bc 8d 4e bd 88 b7 97 bd
       0.03360081 0.058192775 -0.050428137 -0.07408053
000340 f8 c5 bb 3d d0 66 f6 3d 83 93 d7 3d d5 36 41 bc
       0.09168619 0.12031329 0.105261825 -0.011792858
000350 d5 f6 e5 bc b4 20 5b bc 7e 5f 1f bc 07 6b 09 be
       -0.0280718 -0.013374496 -0.009727357 -0.13419734
000360 8a a3 82 3d 05 07 b0 3b 1a 84 a2 3d 81 63 9d 3d
       0.06378849 0.0053719305 0.079353526 0.076849945
000370 fb 71 f6 3d fd f9 68 3d cb 2f 41 3d 49 c0 26 3d
       0.12033459 0.056879032 0.04716472 0.04071072
000380 ea 97 c9 bd 24 d2 e8 bd 82 dd 17 3e 35 26 94 bd
       -0.098434284 -0.11368206 0.14830592 -0.0723385
000390 02 0a d9 3d 8d 35 7b bd 43 6a 9c 3c 30 b3 0e be
       0.10597612 -0.061330367 0.019093638 -0.13935542
0003a0 2f 1c f0 bc 74 97 b7 bb ac 0e a8 3d 10 a9 90 bd
       -0.029310314 -0.0056027714 0.082059234 -0.07063496
0003b0 ca 5f 06 3e a3 ad 1e be b3 c2 9e 3d 22 37 fe 3c
       0.13122478 -0.15495925 0.0775198 0.031032149
0003c0 3b f9 93 bd b3 7d 14 3e 11 0c e9 bd 1c 31 12 be
       -0.07225271 0.14501075 -0.113792546 -0.14276546
0003d0 ae 6e 62 3d 02 83 0c be a1 ef 61 bd e5 5e 02 be
       0.055281334 -0.1372185 -0.05516017 -0.12731512
0003e0 7e 0d d7 bd 6e 62 ab 3c a9 90 e9 3d 4f 5e 62 bd
       -0.1050062 0.020920958 0.11404545 -0.05526572
0003f0 27 df e7 bd f4 6d ec 3d 53 5d c1 3d e3 d4 f1 bd
       -0.1132186 0.115444094 0.09441628 -0.11808183
